compiled_model.pt (torch, 87913 bytes, 8 tensors)

weight f4 [64, 25]
00000000: 9e44 8d3d a01d 80bd f86c 193d 926d f03d
00000010: a279 823d 81a3 253e 5170 393e d028 8e3c
00000020: 439a 9ebd a459 693d dd6d 3dbe 2bd0 44be
00000030: 6203 de3d 01ed 0a3e 9026 98bd 1d1b b7bd
00000040: 8223 40be f0a5 a63c d1d5 2a3e 685e b63c
00000050: 9e3e 10be 9e91 27be b930 253e 7418 593d
00000060: 0b65 22be b915 0bbf 2a75 a93c e5ee cbc0
00000070: b801 503f b36c dcbd 1137 1fbe 0c6c 003e
00000080: d8f8 6ec0 80f6 d7bf d753 1e40 96aa 6cbf
00000090: 521c 90bf ceee 4140 103d 0c40 65ca 8bc0
000000a0: 7d02 64c0 2282 b240 2522 96bf adf2 3240
000000b0: f7aa 6e40 1929 333f 840d 9dbf 7c25 20bf
000000c0: 1563 ec3f 3f28 71c0 06e9 373f 169f 5e3b
000000d0: 788c 0abf f89e 68bf 6d64 1e3d aaac f43e
000000e0: 41bd 47bd e7be 85c0 2748 48c0 5303 76bf
000000f0: 5172 54c0 1a5e 7740 0099 e73e cd46 1d40
00000100: 3bb1 da40 e25a 0f41 b1a4 89c0 40d1 c6c0
00000110: 5ffe c1c0 2d2e 72c0 d12b 25c0 2f29 8840
00000120: 8d5c dd40 af3f e63e 201e 81be 269c bebe
00000130: e1d2 9e3d e24c 2cbf fde1 18c0 f01b f6bd
00000140: 35a4 1ec0 a0f6 e5bd 2898 81be b8c6 b73f
00000150: bcff d23e 6263 2ebe f37f 293f 5143 303f
00000160: 5eb5 b83f 29f3 0b3f 9056 0a3e bfac 85c0
00000170: 907a 27bf a7a7 f8bf 9f3e 23c0 4e50 7fbf
00000180: 25fc 763f 69c8 2f40 2dda 17bf a1b2 a640
00000190: ba96 943e 9b3d b0bc ce6a 1c3d 3312 6cbe
000001a0: e587 9ebb 8427 2c3e d55f dcbd cdd1 41bf
000001b0: afe4 103f 24c1 0dbe dfd6 913f 2308 563f
000001c0: 7054 aabd eac5 a63e b81d 8a3f 77a1 6a3f
000001d0: 9b0b f4bf 45ab 303e 03cd abbf 01c3 52bf
000001e0: 8b1a 09bf fcfe 7abe 1590 d83e ab0d abbd
000001f0: fe4d 1a3e 157a 2dbe 686b fdbc 66e0 b43d
00000200: 2cbc 52bd 38f3 43be 0af4 c1bd 3baf 2cbe
00000210: db98 39be 033e a8bd 600f 1dbd 450f 37be
00000220: 9159 103e ec66 20bd c396 2c3e 9e43 09be
00000230: 4ee7 0abe 2385 113e a853 aa3c dacc c43d
00000240: ec2f 143d d432 423d bf7c 0f3e b393 e7bd
00000250: f051 c0bc c31d 9ebd 7daa d5be 0bb9 bc3c
00000260: b07f cebe 1c03 d0bf af23 36bd 5264 51bf
00000270: 96b6 f73d 9fc5 debf 6734 0140 7ee7 903f
00000280: f88a 5a40 c58c 54bf 0aab c53e 83de f83e
00000290: 0fff f9bf 86cc 26c0 f3d5 63c0 a654 5840
000002a0: db88 ffbf c036 7ebf 74cc 1cbf af43 b8be
000002b0: 0f9c 1ebf 67f1 943d db10 d03f 66d3 913d
000002c0: 379b cabd a51d 38be 45a3 293e c31a e1bd
000002d0: fed4 c03d 6dae d5bd b450 1dbd d480 25bd
000002e0: b829 66bd b197 103e 77cc babd 4807 2bbe
000002f0: 3ab6 aebd d26f 8a3d 7ef9 ec3d 8e1e 00be
00000300: 1a9c 93bd 402f 07bb b4fe 52bd 6095 3e3d
00000310: b246 26be b65e 28be f936 1a3e 7ba2 10be
00000320: ddd4 27be 36cd a73c 5b4d 01be 608a 1fc0
00000330: ca22 513d 4a29 0c3e 1591 9d3e 5c5f fabe
00000340: 4cbb b0bf 36e1 21c0 ae12 0e3e 6415 e6c0
00000350: 0b45 87c0 5ddf c9c0 2b8d fec0 b307 c9c0
00000360: 0f17 1341 adac 9040 8787 f140 109c cf40
00000370: 6926 ae40 6aff 89bf a43b 79c0 98cb 2140
00000380: a465 bbbe b884 28bf 5f58 953d 9a12 10bf
00000390: c555 d8bf dd0c e2bd 9209 12c0 c1f5 8cbe
000003a0: a582 613f 9e41 23c0 f992 ef3d ea1b 98c0
000003b0: 596f bfbf ea95 593f 6f41 ef3f 6f41 27c0
000003c0: f70a 2bc0 6e08 0340 fd7d a2bf 9ef3 aa40
000003d0: bb2a 2c3f 7119 cb3f 0c09 71bf a74c 18bf
000003e0: 295b 44bf 7281 5d40 bd68 fbbd 7b5b 49be
000003f0: 63bf 413e 7013 29be 3aa2 babd ddff f4bd
0.06897853 -0.062556505 0.037457436 0.11739649 0.06370856 0.16175653 0.18109252 0.017353445
-0.07744267 0.056970254 -0.18498941 -0.19220035 0.10840489 0.13566972 -0.0742923 -0.08940718
-0.18763545 0.020342797 0.16683127 0.022261813 -0.14086387 -0.16364142 0.16131867 0.053001836
-0.15858857 -0.5433002 0.020685751 -6.372912 0.8125262 -0.1076292 -0.1554835 0.12541217
-3.7339382 -1.6872101 2.4738672 -0.92447793 -1.1258643 3.0302005 2.191227 -4.3684564
-3.5626519 5.5783854 -1.172917 2.7960618 3.7291849 0.69984585 -1.226975 -0.62557197
1.8467737 -3.7680814 0.7183994 0.0033969334 -0.5412059 -0.9086757 0.038669992 0.47787982
-0.04876447 -4.1795535 -3.1294038 -0.9609882 -3.3194773 3.8651185 0.45233917 2.4574463
6.8341346 8.959688 -4.301354 -6.213043 -6.062301 -3.7840683 -2.5807993 4.2550273
6.9175477 0.44970462 -0.25218296 -0.37228507 0.07755066 -0.67304814 -2.3887932 -0.120170474
-2.4787724 -0.112286806 -0.25311399 1.4357519 0.41210735 -0.17030099 0.6621086 0.68852717
1.4430349 0.5466791 0.13509583 -4.177337 -0.6542139 -1.9426163 -2.550697 -0.9973191
0.9647849 2.746607 -0.59317285 5.2093053 0.29021245 -0.02151375 0.038187794 -0.23053817
-0.0048379772 0.16811949 -0.10760466 -0.75710756 0.56598943 -0.13843209 1.1393698 0.83606166
-0.083168864 0.3257287 1.079032 0.91652626 -1.9066042 0.17252834 -1.342194 -0.823288
-0.53556126 -0.24511331 0.42297426 -0.08352216 0.15068814 -0.16941102 -0.030935004 0.08831863
-0.051448986 -0.1913575 -0.09470375 -0.1686372 -0.18124716 -0.08214953 -0.03834474 -0.17876919
0.14096667 -0.039160654 0.16854386 -0.134047 -0.13564798 0.14210944 0.020791844 0.09609385
0.036178514 0.047411755 0.1401243 -0.11307468 -0.02347657 -0.0772052 -0.41731635 0.023037454
-0.40331793 -1.6250949 -0.044467624 -0.817937 0.120953724 -1.7404059 2.0188234 1.1320646
3.414732 -0.830273 0.38607055 0.48607263 -1.9530963 -2.6062331 -3.5599334 3.3801665
-1.996364 -0.9930229 -0.6124947 -0.35989138 -0.61956877 0.07272606 1.6255144 0.07120399
-0.09892886 -0.17980058 0.16566189 -0.109914325 0.09415625 -0.1043366 -0.038407043 -0.040406063
-0.05619213 0.14120366 -0.0912103 -0.16701996 -0.08530851 0.06759609 0.11571024 -0.12511656
-0.072075084 -0.0020627528 -0.051512435 0.046529174 -0.16237906 -0.1644238 0.15060033 -0.14124481
-0.16389795 0.020483594 -0.12627165 -2.4928207 0.051058568 0.13687626 0.3077475 -0.48900878
-1.3807158 -2.5293708 0.13874313 -7.190111 -4.227178 -6.308516 -7.9547324 -6.28219
9.19313 4.5210786 7.547794 6.4878006 5.4421887 -1.0781071 -3.8942652 2.5280514
-0.36600983 -0.6582751 0.07292246 -0.56278384 -1.6901175 -0.1103761 -2.2818341 -0.27531245
0.8808997 -2.55088 0.11697955 -4.7534075 -1.4955856 0.84994376 1.8691844 -2.6133687
-2.6725442 2.0473895 -1.2694699 5.3422384 0.672527 1.5867139 -0.9415443 -0.5949196
-0.767016 3.4610257 -0.122758366 -0.19663803 0.18920664 -0.16511321 -0.091129735 -0.119628645

bias f4 [64]
00000000: 8d0c 24be 33fa 78be 707c 49be ca28 39be
00000010: a676 43bd a7e2 263e 38a8 99be d8e1 83bc
00000020: 2dcd b23d 8909 d53d d09c 833c d6f4 89bd
00000030: 0eff 57be b5a6 1abe 7caf 533f abdb 7c3e
00000040: 0971 023e a0e1 23bd 54d1 08be 5a79 fb3d
00000050: 99b4 87bb 31fa 403d 98ad 2dbe d87f d73c
00000060: a562 39be 61e2 a63d 635b 843d 93c4 9c3e
00000070: 6404 f7be 481a 4c3d 539f 48be 5fdf 283c
00000080: 130e 143e aeac 633d e767 96be 402c 9a3f
00000090: 16ab 8a3d 53a4 1b3e c79d 33bf 00f7 d6ba
000000a0: 1a0a 14be 1f40 6d3e 0500 0e3e 83be 3abc
000000b0: dca0 423f 5350 babd 5042 57bc 5e8c 99bb
000000c0: 005d 44bc a5f1 3abe 016a 17be c89f 35bd
000000d0: 9242 a93d 50f4 37bc a3f3 2dbe 0d9c 7f3e
000000e0: cc0e 5a3d 80eb 1cbd b397 18be 8be8 08bf
000000f0: d07f f73c 12dc f43d 1152 e13e 0abc 953d
-0.16020413 -0.24314193 -0.19676375 -0.18081966 -0.047720574 0.16297399 -0.30011153 -0.016098902
0.087305404 0.10402209 0.016065985 -0.06736152 -0.2109339 -0.15102656 0.8268964 0.24693172
0.12738432 -0.040010095 -0.13361102 0.12279005 -0.004141402 0.0471136 -0.16960752 0.026306078
-0.18104036 0.08148647 0.06462743 0.30618724 -0.48245537 0.04982975 -0.19592027 0.010307162
0.14458494 0.055584602 -0.29376146 1.2044754 0.06770913 0.15199403 -0.70162624 -0.0016400516
-0.14456978 0.23168992 0.13867195 -0.011397961 0.760267 -0.09097352 -0.013138369 -0.0046859225
-0.011985064 -0.18256243 -0.14786531 -0.044341832 0.082646504 -0.011227682 -0.16987471 0.24961872
0.053236768 -0.038310528 -0.14901619 -0.5347983 0.030212313 0.119560376 0.44007924 0.07311256

weight f4 [128, 64]
00000000: d0ac 513d 545b aebe 164f 313e 9cc3 d73d
00000010: 3886 193a 1073 0b3d d9c3 ef3d d466 3d3d
00000020: ddd6 53bb b190 bbbe d8d8 85bc 58e4 89bc
00000030: 3b0a 6d3d 8833 c4bc e758 43bf 7367 903d
00000040: 2ebb e73d 5879 c73d bb23 f0bd 04eb 723d
00000050: a3bc 86be c88e f33d b8cc 3dbd 38b2 4cbd
00000060: 80d6 d93b 1ef8 cfbe 988f 083e 6a89 753d
00000070: cc25 47be 1a37 c53d 8095 dcbb f111 eb3d
00000080: 9c7d 3fbd 9ed3 383d 487d 38be 466e c1be
00000090: 4cbc 89bd d854 a9bc 03b1 593d f06f bc3d
000000a0: f058 573d 876a 8dbd 644e 133d 417b f4be
000000b0: b721 2cbf 0019 963d 2097 88bd d1f9 29be
000000c0: 603e 18bc ae8c be3d b415 a9be 88b7 9abc
000000d0: eea3 a3bd 44c4 afbd 4c86 083d 7ba8 debe
000000e0: 8468 eb3d fa34 f5bd b4cb 483d 066f a5be
000000f0: 62ad f23d 8cca c23d 2917 b73d 20f0 cf3d
00000100: c8ac c0bc 3f6d 7cbd a896 cebf 0946 ab3e
00000110: 940c a3bd 9e84 d0bd 15ca 073e 3082 303d
00000120: 8b80 e53c d5a6 23bd a0a8 893c 00d0 73bb
00000130: 32bd 17be 407a 2ebd fce3 a9bc ea39 dcbd
00000140: 108d 22bd 5c32 09bd df8c 173e 4ce6 ddbd
00000150: 0cf5 abbc 8ca9 76bf 68f6 963d fc6d 49bd
00000160: c87e af3c 76e9 453c b800 bfbf 2eec 3b3e
00000170: a5ec 4abd 1c92 8c3d 909f 12bc 7bbe 083d
00000180: 9069 b3bc fa81 b63d 1297 813b 6e97 d43c
00000190: a8dd abbc 7895 80bd 57b0 dbbf d883 9f3d
000001a0: 002a fa3d 0fa0 a73d 4029 3fbb 90f5 4b3e
000001b0: 0311 803e 7530 1bc0 f60c b53d 26d1 a03c
000001c0: da46 933d 2e5a b03d 5821 83bc 886d 6fbd
000001d0: 8099 dfbd e8b4 753d a8d7 cc3c 70ac 5bbd
000001e0: 48e3 ca3c b40b e13d aec7 18c0 efc2 06be
000001f0: 4442 833d 4608 b43d 2f68 503e 0009 1d3c
00000200: f870 fe3c 15ed 4fbf 8f5a e9be 14be 42be
00000210: 6c90 9f3c 927e c53d e7b8 b03d 2087 663d
00000220: cdfb 563d 5726 2bbe 461a 99bd bc9a c73d
00000230: 45de 19c0 ba06 82bd bd5a 54be 1a59 cb3d
00000240: f0ba 3b3c 26a1 d43d 818b d8bf 74ea b23d
00000250: f2de 10be a34d c7bf 586f 863d 4cad fa3d
00000260: e2a8 b0bd cfa9 2b3f c16d f5bc 1a13 603c
00000270: 9ed7 b6bd 0cd5 b93d 00cf 8e3a b6f0 f33d
00000280: 9a06 dabd ee2c d2bf 9a8b 16c0 b5a1 ca3c
00000290: 9667 ddbd dc26 de3d 1fe4 a4bf 7854 ba3d
000002a0: 70d0 f13d c88f dc3d 86b4 b3bd b8a2 b73c
000002b0: 5c7a cdbe f28e d8ba 72c8 d03d 499a 073d
000002c0: 4645 c1bd 382e cd3c ed44 90be 60ba 8fbc
000002d0: 8443 c73d 8896 45bd e0e2 5cbc fb5f b4be
000002e0: 4a03 80bd 8287 903d eba0 47bf daf3 bcbd
000002f0: 4ca0 33bd e8c4 9fbc dd72 343e a6d7 b5bd
00000300: a05d 643d 0f0c 983e 4cff acbd 3110 9fbb
00000310: 4fe2 e63d c0af 7dbc 0b42 14bd acb9 af3d
00000320: addc 113e a656 36be a873 f03d 18ee 86bc
00000330: 07de c03c 80e3 a0ba b494 d6bf 748b 033e
00000340: 400a 1bbd 5ad2 a33d 0e42 c73c 4eed ed3d
00000350: 92cb 78be 6f70 083e 5819 813c 58c4 5bbd
00000360: 9085 4d3c 5469 e9be 6bde 72bd ee02 b6bb
00000370: 2b42 263d 328b eb3d 783b d8bc 5b6f c2bd
00000380: b44d a9bd 901e 65bc 2d04 443e 6e7a 2ebf
00000390: 16a7 fbbd da03 c9bd 93bc ffbb 4022 fe3d
000003a0: eca5 4bbd aed3 ab3d f836 a33d 10fc 493d
000003b0: 2a27 91bf 43d9 02bd 82d6 b23d d967 66be
000003c0: 2a37 c9bd 1052 cabc 862c a0be 90ed 203d
000003d0: d89e df3d 34f8 fd3d cc74 5cbd ab7b 9cbe
000003e0: a250 98bd 3c15 49bd aae3 1e3c d5d3 9c3c
000003f0: 78dd 773d 7c75 643d 2fe4 e73d e2de e7bd
0.051190197 -0.34054053 0.17315325 0.105353564 0.0005856487 0.03404528 0.11707277 0.046240643
-0.0032324113 -0.36633828 -0.01633875 -0.016832516 0.057871085 -0.023950353 -0.7630753 0.070509814
0.113149986 0.09739941 -0.11725565 0.05930616 -0.26315793 0.11892468 -0.046337813 -0.04997465
0.006647885 -0.40618986 0.13336027 0.0599455 -0.19448012 0.096296504 -0.006731689 0.114780314
-0.04675065 0.04512369 -0.18016541 -0.37779444 -0.06725368 -0.02067034 0.053147327 0.09201038
0.05257505 -0.06905084 0.03596343 -0.47750285 -0.67238945 0.07328987 -0.0666945 -0.16599204
-0.009292215 0.09304176 -0.3302437 -0.018886343 -0.079902515 -0.085823566 0.0333312 -0.43487915
0.11494544 -0.11972995 0.04902239 -0.32311267 0.118494764 0.09511289 0.08939964 0.10153222
-0.023519889 -0.061627623 -1.6139727 0.3345187 -0.079613835 -0.10181545 0.13260682 0.043092906
0.028015396 -0.039954025 0.01680404 -0.0037202835 -0.14818266 -0.042597055 -0.020738594 -0.10753234
-0.03968531 -0.033495292 0.14799832 -0.10834941 -0.02099087 -0.9635246 0.07371217 -0.049177155
0.021422759 0.012079587 -1.4922094 0.18351814 -0.049542088 0.06863806 -0.0089491755 0.03338478
-0.021900922 0.0891151 0.0039547766 0.025951114 -0.020979717 -0.06278509 -1.716319 0.07788819
0.12215042 0.08184826 -0.0029168874 0.19917893 0.2501298 -2.4248326 0.08840363 0.01963098
0.07191248 0.086109504 -0.01600711 -0.058454067 -0.1091795 0.05998698 0.025005177 -0.053631246
0.02476658 0.1098856 -2.3871875 -0.13160299 0.064091235 0.087906405 0.20352243 0.009584665
0.031059727 -0.81221133 -0.45576903 -0.19017822 0.019478045 0.09643282 0.08629017 0.05628121
0.05248623 -0.16713844 -0.074757144 0.0974631 -2.4041913 -0.06348939 -0.20737739 0.09929104
0.011458144 0.10382299 -1.6917573 0.08736125 -0.14147547 -1.5570568 0.06564206 0.12240085
-0.08625962 0.6705598 -0.029959561 0.013676429 -0.089278445 0.090738386 0.0010895431 0.11911146
-0.106457904 -1.6419961 -2.3522706 0.024735311 -0.10810773 0.108472556 -1.2882117 0.090981424
0.118073344 0.107696116 -0.087746665 0.022416458 -0.40132415 -0.0016522093 0.10194482 0.033106122
-0.09437041 0.025046453 -0.28177586 -0.017544925 0.097296745 -0.04823926 -0.013481826 -0.35229477
-0.06250627 0.07057096 -0.77979916 -0.092261985 -0.043854043 -0.019503072 0.17621942 -0.08879022
0.05575335 0.296967 -0.084471315 -0.004854225 0.11273634 -0.015483797 -0.036195796 0.08580336
0.14244337 -0.17806491 0.1174081 -0.016470954 0.02354337 -0.0012274832 -1.676413 0.12846166
-0.037851572 0.07999106 0.02432349 0.11617528 -0.24296406 0.1332414 0.015759155 -0.053654045
0.012544051 -0.4558817 -0.059294146 -0.0055545485 0.040590446 0.11501159 -0.026395544 -0.094938956
-0.08266774 -0.013984337 0.19142218 -0.6815556 -0.122877285 -0.09815188 -0.007804462 0.124088764
-0.049718782 0.08389984 0.07969469 0.04931265 -1.1340077 -0.03194548 0.0873232 -0.22500552
-0.09824975 -0.024697334 -0.3128397 0.039289057 0.10918969 0.124008566 -0.053822324 -0.305631
-0.074372545 -0.049092516 0.009697834 0.019143978 0.060513943 0.055776104 0.113228194 -0.113218084

bias f4 [128]
00000000: 84e0 03bf d445 0e3f 64b4 943f 994d a93f
00000010: 82ca 833f 532b d63f fb25 943e 67ac cfbf
00000020: 4951 ec3e 3a70 df3d 64d0 a23e 3429 c83e
00000030: 55a0 1dc0 699d 06c0 e3c8 793e 8c6f d9bf
00000040: 2984 bd3f 8561 e2be 0714 36be fc55 0ec0
00000050: ee25 943e 4514 37be 91a3 d0bf 5e28 af3e
00000060: f1a5 0340 ce99 8ebf 52e7 1ac0 a61e a1bf
00000070: d581 8f3e a1d8 943c 916b 083f fcf6 17bf
00000080: 2f06 48bf 0953 8a3e 98fa 8f3f e528 f6bf
00000090: 228e 2d40 54dd 05c0 30ac cabf 9b06 35bf
000000a0: 6a47 883e ee40 9bbf e990 d23f b4ee b3bf
000000b0: 9cd8 d1be 5e07 1cc0 4e10 843d 978c 0e3e
000000c0: 0e64 5ac0 4b34 0a40 984b 44bf 7193 333e
000000d0: 539d 4f3f a739 413e 993e dfbe faad 2b3f
000000e0: ecb3 bb3d 22fd a43f eb0d 4c3f 6519 803f
000000f0: 29eb ca3e 56bc a2bf 6286 413f f356 cf3f
00000100: c50a d93e 094f 0f3f 635f ac3f ddc0 f13e
00000110: d94b 49bf f5c3 933f 20dd 0dc0 7083 0b40
00000120: 25d4 f73e e9fa 623f fd84 f23f 778a 6d3f
00000130: f460 eebd 52d3 d13f f868 fabf d886 a83d
00000140: 0ea2 92be 6f73 10c0 edae 60bf a396 be3f
00000150: b867 74bf f17b c2bf 86ef 733f c989 21c0
00000160: e7e3 37c0 ea53 dc3e e79a aabf fb36 eebf
00000170: 452a 1840 5cea 62bf 7eca f03f 27bc bc3d
00000180: 1f1b 46bf 18cd 1d40 daa4 2f3e 511f 05c0
00000190: 214f 853f 6fd9 e1bf 9056 a8be 485b d43c
000001a0: 850d 29c0 a25c a7bf 02a8 b3bf a88a d3be
000001b0: 7b07 44bf bdca 153e d879 20c0 5ed7 5a3e
000001c0: 1741 1bbf 65f5 05c0 fa1d 0ebd 7102 b73f
000001d0: 3a4c e8bf 787f 0ac0 cfd4 2dc0 c634 04c0
000001e0: 1757 4abf a913 313f 3a35 983e e996 8c3f
000001f0: 0125 f2bf 746c aabf 870e a43f 4ba8 1dbf
-0.5151446 0.555753 1.1617551 1.3226806 1.0296175 1.6731972 0.28935227 -1.6224488
0.46155766 0.109100774 0.31799614 0.39093935 -2.462911 -2.1033576 0.24393038 -1.6987166
1.4805957 -0.44215026 -0.17781077 -2.223998 0.28935188 -0.17878826 -1.6299917 0.34210485
2.0570033 -1.1140687 -2.4203687 -1.2587478 0.2802874 0.018169703 0.53289133 -0.59361243
-0.78134435 0.27016476 1.124835 -1.923123 2.7118 -2.0916338 -1.5833797 -0.70713204
0.26616985 -1.212919 1.6450473 -1.4057221 -0.40985572 -2.4379497 0.06448422 0.13920818
-3.4123569 2.1594417 -0.76677847 0.17536713 0.8109943 0.18869649 -0.43602446 0.6706234
0.09165177 1.288975 0.7970874 1.000775 0.39632538 -1.2713726 0.75595677 1.619841
0.4239103 0.55979973 1.346661 0.47217456 -0.7863136 1.1544176 -2.2166214 2.1798973
0.4840404 0.8866411 1.8946835 0.92789406 -0.11639586 1.6392615 -1.9563284 0.082288444
-0.28639263 -2.2570455 -0.87766916 1.4889721 -0.9547076 -1.5194074 0.9528736 -2.5240347
-2.873285 0.4303277 -1.3328522 -1.8610529 2.37758 -0.88638854 1.8811796 0.09215575
-0.77385134 2.465643 0.1715273 -2.0800364 1.0414773 -1.764448 -0.32878542 0.025922433
-2.6414502 -1.3075144 -1.4035647 -0.41316724 -0.76573914 0.1462812 -2.5074368 0.21371219
-0.60646194 -2.0931027 -0.034696557 1.429762 -1.8148263 -2.16403 -2.7161138 -2.065721
-0.7903914 0.69170624 0.2972811 1.0983554 -1.8917543 -1.3314347 1.2816933 -0.6158492

weight f4 [64, 128]
00000000: 105e 33be 12a5 a23d 09ca 95bb a12d d8bd
00000010: 9ee4 24bf 9fb3 8abf 0eb8 d53b 4fb7 76bd
00000020: e38c 88be 9bc5 263e 86a9 353e 8f05 7dbe
00000030: d2b1 6e3d cbbb ba3d 8d2f a23d 2785 953d
00000040: a04a 43bf 12f6 7c3e 3c25 543e d244 793d
00000050: 7a52 803c bfb9 b23e 486d 4c3b fc1d 9f3e
00000060: 6a27 45bf 20a4 2cbf 9589 cfbd bb05 443e
00000070: f34e af3e e011 423e e36c fdbd 89cf 1fbe
00000080: ea5b 8b3e 9e08 24bf 20e2 8dbf 7fae 183e
00000090: 6f01 3abf 20a8 313e fb03 043d 47d2 e0bc
000000a0: 3558 63bf 1cb7 54bf 5cc9 433e 113a d63d
000000b0: c870 c03d c48d 84bf 65ec 363e 3826 00bd
000000c0: d9dc 88bc 4d3c bfbc ef6a 8fbd 9bfc 69be
000000d0: 4521 213d 1004 533e c43f 2dbe cb4a 74bf
000000e0: e02e 92bd 4579 16be 0e20 85bd abd9 ef3c
000000f0: c95d 1d3b 6976 193e a997 ccbd 45a1 8fbe
00000100: 5b69 9fbe 04b1 f73d a584 e23d 7e66 a53b
00000110: b967 09be 6e20 36bc 4850 b23e bfb7 4bbe
00000120: c779 2c3e a8e4 b9be 1437 1fbf e460 41bf
00000130: 8170 b33e b5ab e43d 50a7 66bd 4b19 81be
00000140: 911b ea3d c661 c63c b63b 45bd ae81 a6be
00000150: c28c 003e 1e4f a4bb b07d 74be 360d 533e
00000160: 8ec5 483e 988b b3bc b1cc acbe bb95 f1bd
00000170: f70b 70bf 1b35 10bf aa31 a9bf 704d 75be
00000180: 451d c63d 750f bebe bcbe a03d 0a41 7bbe
00000190: d0e3 2e3e f1f0 f3bd bdff e43d ec20 1abe
000001a0: 992e ee3e 0089 7abe c787 cc3d 03d1 efbd
000001b0: d3e3 fd3d 0902 1bbe ef4b c03d 7a16 253e
000001c0: e907 dc3b b998 71bd 75cf 74bc 78b1 4bbf
000001d0: acce a1ba 7fbc 0b3e aa6d 8f3d 25dd 3bbe
000001e0: da07 81bc a4b3 063d 6fdd 843d 2402 c03e
000001f0: d453 073f 608b 283c ad87 9bbe 06d6 393e
00000200: 6ce1 68bf 17e2 cd3d e2eb 1e3e 2ca3 25bd
00000210: 6279 553e 0e80 d83e 891b c73c ee90 86be
00000220: 6af5 a43d 1ecf 22bd d28e 6abb 4a4e 5f3d
00000230: d521 b13c e32e 733d c69c 81be d545 7f3e
00000240: 9faa 26be 25db bb3d 86aa 153d 034d 663e
00000250: cb3c 7c3d d2fd 9a3e 103e a7bc 23da 33bd
00000260: 50c1 18bd e10d bcbe 3c0e 97be 3d69 123e
00000270: a3b0 6dbb b7a4 52bc cb22 3fbe 64a2 c03d
00000280: b376 9f3d 1636 a1be b87d 8cbd 07ad fa3d
00000290: cc7a 723e a613 363d 5de2 5d3c 0c22 c13c
000002a0: 97e5 863d 15a5 59bf 75bc 02bd 31b0 1e3e
000002b0: 74fa b83d b48d 6abf aa12 ab3d ccfc 9c3b
000002c0: 2daf 353e 10ae 7d3e 60cd 90be 3904 60be
000002d0: 9b15 7dbd 7e3e cf3d dbca 90be 7ccc d5bd
000002e0: 45b2 583d a268 3b3e c412 18be 74c6 33be
000002f0: 9065 18be 3990 033e 8b9a b3bd 256c 5fbe
00000300: ae03 bdbe 0989 a03d 5e47 c13d 8b5e 093d
00000310: d758 dcbe 5256 f3bd 14f0 0c3e d0dd cdbd
00000320: 01e2 d33d 6f01 203e 4a62 53be a4ad dfbd
00000330: 07ef 3f3e c7e7 2abe 0214 8cbd 9fb9 5dbe
00000340: 555b a2bc 2451 61bc ceec 0e3d f870 fb3d
00000350: cd9a 803d 2374 e83c 2132 6ebe 65d2 c33c
00000360: 4937 2f3e d8ac f43d f340 95be 8bd5 2cbd
00000370: 2b15 77bb b51b 4cbf 7a02 4abe 8ee6 8cbe
00000380: 1688 433c 0f88 b53c 5d72 803e 2e4a 09bf
00000390: f8b5 dcbd 92c5 253e ac22 2ebd 458d d9bd
000003a0: f8ed 453d 50a1 90be 8b07 f5bb 1f50 943d
000003b0: a560 483e 4d6e 3e3e 2a71 e5bd 7319 bd3d
000003c0: ca87 a73c b098 843e 08eb f2bd 3113 9d3d
000003d0: 85c3 52bc 8d42 003d b8fb 413d cf64 6ebe
000003e0: c3de aa3d 4429 ea3d 3a7c 4d3d 3569 ccbd
000003f0: a96b a53d 3876 4cbc 327f 1dbe 19a0 813d
-0.17516351 0.07941641 -0.0045712036 -0.10555578 -0.6441134 -1.0836066 0.006522185 -0.06023341
-0.26669988 0.16286318 0.1774045 -0.24709152 0.05827505 0.0911785 0.07919226 0.073007874
-0.76285744 0.24703243 0.20717329 0.060856648 0.015664328 0.34907338 0.0031193066 0.31077564
-0.77013266 -0.67437935 -0.101336636 0.19142811 0.3423992 0.18952131 -0.12374284 -0.15606512
0.27218562 -0.6407565 -1.1084633 0.14910315 -0.7265844 0.17349291 0.03223036 -0.027444018
-0.8880647 -0.830919 0.19119781 0.10460294 0.09396511 -1.0355763 0.17863615 -0.03128645
-0.01670687 -0.023344183 -0.07002818 -0.22850268 0.03933837 0.20607018 -0.16918856 -0.95426625
-0.07137847 -0.14694698 -0.065002546 0.029278597 0.00240122 0.14986576 -0.099898644 -0.28052726
-0.31135067 0.1209431 0.11060456 0.0050476184 -0.13418473 -0.01111613 0.34826875 -0.19894312
0.1684333 -0.36307263 -0.6219342 -0.7553847 0.3504677 0.11165563 -0.056311905 -0.2521461
0.11431039 0.024216544 -0.048152648 -0.32520813 0.12553695 -0.0050143143 -0.23876071 0.20610508
0.19606611 -0.02191715 -0.33749917 -0.11796137 -0.93768257 -0.5633103 -1.3218281 -0.23955321
0.096735515 -0.37121168 0.0784888 -0.24536529 0.17079091 -0.1191119 0.11181591 -0.15051621
0.46519926 -0.24466324 0.09986835 -0.11709788 0.1239697 -0.15137495 0.09389483 0.16121855
0.00671481 -0.05898354 -0.01494204 -0.7956767 -0.0012344918 0.13646124 0.07003339 -0.18346079
-0.015750814 0.032886162 0.064875476 0.37501633 0.52862287 0.010287136 -0.3037695 0.1814805
-0.90968966 0.10052889 0.1551967 -0.040438816 0.20847085 0.42285198 0.024305122 -0.26282448
0.080546215 -0.039748304 -0.0035790694 0.05451802 0.021622578 0.059370887 -0.2531492 0.24928983
-0.16276024 0.09172658 0.036539577 0.22490315 0.061581414 0.30271775 -0.020415336 -0.043909203
-0.037293732 -0.3672934 -0.29503047 0.14297958 -0.0036268614 -0.012856654 -0.18665616 0.094059736
0.07786312 -0.31486577 -0.068599164 0.122400336 0.23679656 0.044452332 0.013542739 0.023575805
0.065867595 -0.8501752 -0.031918008 0.15496899 0.09032145 -0.9162247 0.08353169 0.004790878
0.17742606 0.24773431 -0.2828169 -0.21876611 -0.061788183 0.10119341 -0.28279766 -0.10439393
0.052904386 0.18301633 -0.14850909 -0.17556173 -0.14882493 0.12847985 -0.08769711 -0.21818598
-0.3691687 0.078386374 0.0943744 0.03353743 -0.4303653 -0.11881699 0.13763458 -0.10052073
0.10345841 0.15625547 -0.20642963 -0.10921791 0.18743525 -0.16689979 -0.06839754 -0.2165284
-0.019818941 -0.013752256 0.034893803 0.122774065 0.06279526 0.02837569 -0.2326131 0.023904035
0.17110933 0.1194703 -0.29151115 -0.042195838 -0.0037701826 -0.7972978 -0.19727507 -0.2751965
0.011934301 0.022159604 0.25087252 -0.53628814 -0.10776895 0.16188648 -0.042513534 -0.10622648
0.048322648 -0.28248072 -0.007477706 0.072418444 0.19568117 0.18596764 -0.11203225 0.0923337
0.020450491 0.2589774 -0.11861235 0.07669676 -0.012863998 0.031313468 0.0473592 -0.23280643
0.0834327 0.11433652 0.0501673 -0.09981004 0.08077175 -0.012479357 -0.15380552 0.06329364

bias f4 [64]
00000000: 3203 1a40 4329 7f40 1d88 7f40 d9d7 9a40
00000010: c3cd 5e40 031e 8c40 f472 5c40 9463 ac40
00000020: 0270 803f 715c 90be 4d5c 6f40 11d3 8240
00000030: 02e5 c4bd 8c12 9940 499d 7840 dac7 9d40
00000040: ba0e 6d40 7e12 8a40 5d9f 7540 3a0c 9540
00000050: 0a1d 2240 0adf af40 cd7c 8040 4992 7e40
00000060: b5d9 5a40 ea8e 8140 1247 8b40 84a2 1e40
00000070: ad39 7a40 5059 ac40 2848 ef3f 2d15 fc3f
00000080: fbb8 9240 469a 5040 f652 9640 bef6 9440
00000090: a3f4 6740 92f9 6b40 68d1 9b40 cd91 6e40
000000a0: 3b67 b040 1cc4 9540 f57d 1740 4d2c 6a40
000000b0: 66bd 8240 3000 8040 e556 cc3e 9fb9 5140
000000c0: a5d9 9440 f832 8d40 0ecc 4240 66e0 5640
000000d0: b29b 9e40 6c1a 6340 cd37 4bbe 0384 9c40
000000e0: 9c35 4440 95d4 9f40 f9ee 8540 792c 7e40
000000f0: 910c d7bd 7460 7940 f6b5 9540 7243 4440
2.406445 3.9868934 3.9926827 4.8388486 3.4813087 4.3786635 3.4445162 5.3871555
1.0034182 -0.28195527 3.7400086 4.088265 -0.09613992 4.783514 3.8846 4.930646
3.7040238 4.3147573 3.8378518 4.6577425 2.5330224 5.4959764 4.0152345 3.9776785
3.4195378 4.0486956 4.3524256 2.4786692 3.9097703 5.3859024 1.8693895 1.9693962
4.5850806 3.259416 4.697627 4.65512 3.6243064 3.6871076 4.8693123 3.727649
5.5126014 4.680189 2.3670628 3.658954 4.08562 4.000023 0.39910045 3.2769544
4.651568 4.412472 3.0437045 3.3574462 4.956506 3.5484877 -0.19845505 4.8911147
3.065772 4.9947 4.1854215 3.9714644 -0.10500444 3.896512 4.678462 3.0666165

weight f4 [6, 64]
00000000: 67e0 8d3d d9d6 a6bd 86ab 89bd 27bd 49bd
00000010: bfcd a0bc c2a2 be3c 0128 1abd 7a7f 77be
00000020: e6b3 9fbd 37e7 a73d 8333 e9bd 6c80 68be
00000030: f9c7 ca3d 25ef b3bd 7bf4 7939 b112 bebd
00000040: d382 f8bd 9151 6abd f2e8 fbbc dbea e3bd
00000050: 1d91 54bd 8766 65be 41d3 353d c678 4ebd
00000060: 13b2 31be 7e8a 233c 05b7 b9bc 493d 00be
00000070: 9d0f 5fbe 53be a2bd a35d c4bd 6df9 a23d
00000080: d04d e4bd 1cf0 66bd f9e0 efbd 5a13 08bb
00000090: 7810 ed3c 87f3 b4be a128 8bbe c7a5 29be
000000a0: dbc4 99bd e670 91bd c11a 4538 10a1 03bb
000000b0: 0c03 833c 5b8d 82be 6972 62bd 7c2e 0dbe
000000c0: 6380 e1bd d24d 4dbe 7055 6fbd 0586 99bd
000000d0: bee9 63be 1220 42bd ad6d 31bd 090c abbd
000000e0: 9c9c ae3d 86ce dc3d 8d15 633d d183 21be
000000f0: 00e5 f93c 9a9f 9abc 23bc dabc 54df bdbc
00000100: 1c81 1a3d 6eab 1e3d beca 2f3e 9c85 56bc
00000110: edd0 5b3c a7b2 293b a73b 363e e322 1d3e
00000120: e428 863d e760 d93d 69a0 353d 15c8 8f3c
00000130: 27aa 28bd 6301 6d3e b968 0f3c 2346 093d
00000140: 03fa 6d3e 0e3c ab3d 1f7d 37bd 4880 f93d
00000150: ce1c fc3d 37ac 133e a2fc f23c 09e0 bc3c
00000160: bec5 9a3e 916b 58bd 2d7e a23c 961f b6bc
00000170: 1091 3b3c b5f3 aaba a293 8b3e ae34 813d
00000180: 4e50 583e 6638 4bbc ccc4 d73b b682 763c
00000190: 6bf1 a23b 0bd7 ae3d 973b 233e 3180 c63b
000001a0: afd4 143d 2ecd 29bd b3f8 27bd 61da f6bb
000001b0: 4171 4c3d 469d 673d 4336 4cbc 3a69 f13b
000001c0: 2c9f 293d 7995 c63d 4533 1ebd f8e5 2c3c
000001d0: d417 363d 5417 313d 929b cd3d b623 023e
000001e0: 6d91 603c 4381 cc3b 3461 d3bb 486e c5bb
000001f0: b8c5 a83b 6cd9 583d c714 263c 0a72 d13d
00000200: 4c92 3dbc a43e b2bc c8a4 8f3c fd88 653e
00000210: b005 34bc 78cf 453e 60c7 37bd 3931 df3e
00000220: 9e00 d3bb 30c7 88bd af87 653b 510b 933c
00000230: 53ba acbd 647b 3d3d 2dfd 693e fe7d 843e
00000240: 28e7 8cbd af61 51bc b55a bcbc 5218 c0bc
00000250: 5e42 223b cacc 873e 1d6a 01bd fc88 17bb
00000260: 34fd 15bc 0e4c 5f3e 26ef 393e b0d2 883e
00000270: 1643 533e 5cb6 4a3e dbc6 a5bc 2f8b 15bd
00000280: 826e dfbd 9340 623e 9bf5 b73e baad 943e
00000290: 0641 03bd 8a91 b1bc 2be4 dc3c 41ed 363b
000002a0: 2535 593e 8d89 853e 17bb 743e 4ae6 913c
000002b0: 12b9 d7bc ff8f c7bc a317 6d3e 2b57 c23e
000002c0: e70b 4cbd c0aa 37bc 228b 26bd e824 873e
000002d0: 6545 743e 084a 04bc 917e a4bd c5d8 b63d
000002e0: 7381 b9bb 47cb 693e 9168 593e f555 b83c
000002f0: b2c3 c33d 26c8 b2bc 49b9 533e 9f37 543e
00000300: 5a53 d13d c652 e13d b5d5 903d 583c a0bb
00000310: d575 a53d 628b e33c f071 ae3d 5453 423e
00000320: 551f 023e 9e80 05bd b0b0 803d 108c f53d
00000330: dab6 0b3e 043b 1aba 3c22 fbb9 c139 e93c
00000340: 3787 823c 0e41 c93d 6f1c 243e d764 b33d
00000350: 70fe 373e 610d 963c 5493 de3d ba7b ad3d
00000360: e25f 6cbd 8335 2cbd c958 023d 6bbf 683d
00000370: 0fb4 103d 45a1 553d c55c 6cbc f529 94bd
00000380: bf77 a53d d1fa e23c 8bb5 47bc 78b5 ecbc
00000390: f62c 0b3e f6ee a53d 9298 4d3d 5696 463d
000003a0: 6735 ac3d 5653 5a3c d87b d13c 9c35 8b3d
000003b0: 5298 da3d b147 c73d 0586 f93a 319a f4bb
000003c0: 79c1 153e 75aa ea3d f4d1 a73e fbca 3dbd
000003d0: 4bd7 cb3b 291a fd3d 9bc4 1d3e ec4d 863e
000003e0: 658e 493e c13f 183c d571 59bb d42b c23d
000003f0: a948 28be 38da fc3d 08d1 a9bb 485a 45be
0.06927567 -0.08146448 -0.067221686 -0.049252655 -0.019629357 0.023270968 -0.037635807 -0.24169722
-0.07797985 0.081983976 -0.11386778 -0.22705239 0.09901423 -0.087858476 0.00023837567 -0.09280909
-0.12134328 -0.057206694 -0.030750725 -0.111287795 -0.051896203 -0.22402392 0.04439092 -0.050408147
-0.17353086 0.00998175 -0.022670278 -0.12523378 -0.217833 -0.07946458 -0.09588172 0.079577304
-0.11147654 -0.05638133 -0.11712832 -0.0020763488 0.028938517 -0.35342047 -0.27179435 -0.16567145
-0.0750825 -0.07101612 4.6993377e-05 -0.0020085014 0.015992664 -0.2549847 -0.05528489 -0.13787264
-0.11010816 -0.20049217 -0.05843109 -0.07496265 -0.22257134 -0.047393866 -0.043317486 -0.08351905
0.085259646 0.10781579 0.055440474 -0.1577294 0.030504704 -0.018874932 -0.026701039 -0.02317778
0.037720785 0.038737707 0.17167184 -0.013093378 0.013416511 0.0025893839 0.17796193 0.1534534
0.06550768 0.10614186 0.044342432 0.017551461 -0.041177895 0.2314506 0.008752995 0.033514153
0.23239903 0.08361064 -0.04479706 0.12182671 0.123101816 0.14421163 0.02966148 0.023056047
0.3022899 -0.05283696 0.019835556 -0.022231858 0.01144816 -0.0013042601 0.27261072 0.06308876
0.21124384 -0.012403583 0.0065847393 0.015045812 0.004972627 0.0853711 0.159407 0.006057762
0.036335643 -0.04145544 -0.041008662 -0.007533357 0.049912695 0.056546472 -0.012464109 0.0073672803
0.041411564 0.096964784 -0.038623113 0.010552876 0.044456318 0.043235138 0.10039438 0.12708935
0.013706547 0.006240995 -0.0064507965 -0.0060251094 0.005150523 0.052941725 0.01013679 0.10226829
-0.011570524 -0.021758385 0.017534629 0.22415538 -0.010987684 0.19317424 -0.044867873 0.4359224
-0.0064392826 -0.06678617 0.00350235 0.017949732 -0.08433976 0.046260253 0.22850485 0.25877374
-0.06880027 -0.012779637 -0.022992471 -0.023449097 0.0024758796 0.2652343 -0.031595338 -0.002312242
-0.009154607 0.21806356 0.18157634 0.26723242 0.2063106 0.19796127 -0.020236423 -0.03650969
-0.109097496 0.22094946 0.3592957 0.29038793 -0.032044433 -0.021675844 0.026964268 0.002791241
0.2121168 0.26081505 0.23899494 0.017810006 -0.026333366 -0.024360655 0.23153548 0.3795713
-0.04981604 -0.011210144 -0.04066003 0.26395345 0.23854597 -0.008074291 -0.08031953 0.08928064
-0.0056611835 0.2283145 0.21231295 0.022501925 0.0955881 -0.021823954 0.2067615 0.20724343
0.10220976 0.11002116 0.070720114 -0.004890006 0.08079115 0.027776424 0.085178256 0.189771
0.12707265 -0.032593362 0.062837005 0.119896054 0.13643971 -0.0005883428 -0.00047899957 0.028469922
0.015933616 0.09826861 0.16026472 0.08759468 0.17968154 0.018316926 0.10867944 0.084708646
-0.05770863 -0.04204322 0.031822953 0.056823175 0.035327967 0.05215575 -0.014426415 -0.07234565
0.080794804 0.02770749 -0.012189279 -0.028895125 0.1359137 0.08102219 0.05019433 0.048483215
0.08408623 0.013325533 0.025571749 0.067973346 0.10673584 0.09730471 0.0019037133 -0.00746467
0.14624585 0.11458293 0.3277737 -0.046336155 0.0062207333 0.12358505 0.1540703 0.26231325
0.19683225 0.009292544 -0.0033179421 0.09481016 -0.16433968 0.123463094 -0.005182389 -0.19272721

bias f4 [6]
00000000: e668 b3bc 379b 5241 952a 3b41 93fd 3b41
00000010: 2466 1341 9d12 8240
-0.021900605 13.162894 11.697896 11.749408 9.212437 4.064772
