modelPollution.pt (torch, 79535 bytes, 8 tensors)

weight f4 [64, 25]
-1.8112853 -0.063886754 0.16928111 -1.4404005 0.55915135 0.5351232 -0.0663998 0.59352183
-0.83107865 -0.0794415 -0.666312 -1.2197671 -0.68172175 -0.64760363 -2.1211827 -1.2186719
1.0804968 1.0362062 0.71695995 1.8269649 -0.047548328 1.5443285 0.25154954 1.492705
0.44167492 0.015985057 -0.12864262 0.10667445 -0.05881396 0.19529037 0.025157526 0.112794325
-0.16723292 0.14745496 0.012564808 -0.14358227 0.16893633 0.16071256 0.13710059 -0.15200698
0.12104164 0.14145301 -0.18938117 -0.08917494 -0.004829496 -0.00916481 -0.05947563 -0.045919806
0.15360631 0.14359249 0.26873505 -0.0058952426 0.3655099 -2.3434765 0.007156932 -0.8310349
0.01620723 -0.48551524 -2.2333324 -0.900201 -1.043571 -1.6081202 -1.0790892 -1.6028744
-2.8922536 -2.256892 1.2143265 0.35935882 1.2204536 1.8258088 1.7565346 2.3252347
-0.26673302 1.7526535 3.1262164 -0.12981685 -0.14372344 0.11164214 0.067880854 -0.07245913
-0.18983288 0.1515588 0.041076735 0.027935356 0.09432788 0.03702633 0.041790575 -0.053075403
0.16545211 0.06115873 0.17957897 0.0455015 0.037745148 0.012692526 0.11506243 -0.13061172
-0.11112137 0.028645754 0.045805857 -0.12089024 0.052679293 9.2157636e-05 -0.04802301 -0.8814132
0.031360276 -0.30379936 0.012146867 -0.30327877 0.77784365 0.24114822 1.4082739 -1.1610341
-0.11091032 -0.42648992 -1.8596596 -1.965029 0.09843916 1.5958017 0.15752195 0.1615767
0.27569908 -0.16516158 -0.48289257 0.7320711 0.11092427 -0.20780408 0.018843567 -3.8453226
0.1815544 -0.86096936 -0.28375933 -0.10108342 0.034655973 1.6423054 0.51082134 0.06695504
-1.4505974 -0.07957517 1.1287736 -3.742203 -3.1122658 5.302912 0.60751116 3.0243118
1.4801224 -1.2143133 -2.0991561 -1.7219205 -0.93159544 -3.4854498 0.09111473 0.022911007
-0.17763494 -1.2187335 -3.4819815 -0.010282278 0.70760024 1.9942302 3.1001775 0.92891604
-0.6226847 -3.1837623 0.34175122 -2.1424682 -4.1743865 -3.5013711 4.8104777 -3.0247152
4.0638895 1.9991573 1.115885 -2.2996757 -3.0751317 -1.5732815 -0.769267 0.020515084
-0.05475375 -0.19074658 -0.14559337 -0.02038686 0.13005732 0.07100882 0.14359058 -0.16765845
-0.19160603 -0.017499402 -0.19717203 0.17790623 -0.1041785 0.003990054 0.18485917 0.066217616
-0.1996547 0.18113516 -0.027123407 -0.023292184 -0.026310608 0.13598578 0.17388047 0.13410006
-0.63679904 0.03475861 -0.093665354 -2.602895 -0.19516335 -0.58275115 -0.23158771 1.3990444
2.3334553 1.1553118 0.5513679 -2.8032753 0.6427869 -0.09591503 -3.3185985 -2.8513107
1.4693383 -1.5307186 0.9189992 1.3209735 0.36635587 -0.47150785 -1.6170527 -0.0027429534
0.54809237 0.3235324 0.014956238 -0.052317936 -1.9828922 -0.002711314 -0.33160493 0.15443689
-0.75195855 0.5050378 -0.36385638 0.57994956 -4.087898 -1.2585804 -4.2296805 -4.9739127
-4.78767 5.86302 1.8920159 3.5565968 3.2172499 3.7989233 -1.3834416 -2.9886842
2.1004531 -0.19037196 0.07935472 -0.05394578 0.072659984 0.012888148 0.16180955 0.08460678
00000000: 32d8 e7bf 0fd7 82bd 0758 2d3e 0b5f b8bf
00000010: 8b24 0f3f d6fd 083f 9efc 87bd 0cf1 173f
00000020: 92c1 54bf 3ab2 a2bd 6c93 2abf 5421 9cbf
00000030: 5185 2ebf 5ac9 25bf 75c1 07c0 71fd 9bbf
00000040: b84d 8a3f 68a2 843f b08a 373f fcd9 e93f
00000050: 09c2 42bd 8eac c53f 1acb 803e f510 bf3f
00000060: 3723 e23e 18f3 823c e4ba 03be 2278 da3d
00000070: e8e6 70bd 33fa 473e 2817 ce3c b600 e73d
00000080: 1b3f 2bbe 6ffe 163e a0dc 4d3c 3b07 13be
00000090: a5fd 2c3e d591 243e 1964 0c3e b8a7 1bbe
000000a0: aee4 f73d 0fd9 103e 23ed 41be 5aa1 b6bd
000000b0: c040 9ebb 0028 16bc b89c 73bd 6816 3cbd
000000c0: f94a 1d3e e909 133e a497 893e e12c c1bb
000000d0: 1d24 bb3e 85fb 15c0 b284 ea3b b4be 54bf
000000e0: 06c5 843c 7495 f8be ebee 0ec0 9373 66bf
000000f0: bc93 85bf e2d6 cdbf 981f 8abf fd2a cdbf
00000100: af1a 39c0 eb70 10c0 0d6f 9b3f e1fd b73e
00000110: d337 9c3f 1ab4 e93f 20d6 e03f a5d0 1440
00000120: 3b91 88be f356 e03f ee13 4840 b5ee 04be
00000130: 3d2c 13be a2a4 e43d 1e05 8b3d 7465 94bd
00000140: 8d63 42be 3b32 1b3e 1440 283d b0d8 e43c
00000150: fa2e c13d eca8 173d 982c 2b3d 9865 59bd
00000160: 476c 293e 9481 7a3d 8de3 373e c85f 3a3d
00000170: a89a 1a3d 50f4 4f3c daa5 eb3d 14bf 05be
00000180: 9a93 e3bd 80aa ea3c ec9e 3b3d 4d95 f7bd
00000190: 3ec6 573d c144 c138 c7b3 44bd 4ca4 61bf
000001a0: a273 003d 978b 9bbe a703 473c 5b47 9bbe
000001b0: c320 473f 8fef 763e 5242 b43f c49c 94bf
000001c0: f324 e3bd e35c dabe 5309 eebf 1286 fbbf
000001d0: 789a c93d 3b43 cc3f 6f4d 213e 5d74 253e
000001e0: 6e28 8d3e 1e20 29be b23d f7be 0369 3b3f
000001f0: 432c e33d 98ca 54be d35d 9a3c c419 76c0
00000200: 66e9 393e 7d68 5cbf e748 91be d304 cfbd
00000210: 6cf3 0d3d 1037 d23f 30c5 023f b91f 893d
00000220: 2dad b9bf 4ff8 a2bd a77b 903f 4180 6fc0
00000230: 5d2f 47c0 75b1 a940 da85 1b3f 538e 4140
00000240: a774 bd3f 9e6e 9bbf 9358 06c0 e467 dcbf
00000250: 0a7d 6ebf 9c11 5fc0 5c9a ba3d ddaf bb3c
00000260: efe5 35be 76ff 9bbf c9d8 5ec0 0077 28bc
00000270: 4a25 353f ef42 ff3f 4f69 4640 71cd 6d3f
00000280: 4468 1fbf c3c2 4bc0 04fa ae3e 331e 09c0
00000290: 9394 85c0 7716 60c0 6fef 9940 ef94 41c0
000002a0: 620b 8240 63e4 ff3f 52d5 8e3f e32d 13c0
000002b0: f5ce 44c0 4a61 c9bf afee 44bf 400f a83c
000002c0: 7845 60bd 1253 43be 6e16 15be 5802 a7bc
000002d0: bf2d 053e 126d 913d 6909 133e a8ae 2bbe
000002e0: 5f34 44be e85a 8fbc 77e7 49be 0d2d 363e
000002f0: 8a5b d5bd 00bf 823b b94b 3d3e 1a9d 873d
00000300: 4872 4cbe 7f7b 393e e831 debc 40cf bebc
00000310: 5889 d7bc db3f 0b3e b90d 323e 8751 093e
00000320: 4305 23bf 0b5f 0e3d 9fd3 bfbd d595 26c0
00000330: e7d8 47be 2e2f 15bf 5425 6dbe e313 b33f
00000340: 5557 1540 42e1 933f 7226 0d3f dd68 33c0
00000350: af8d 243f 196f c4bd eb63 54c0 e07b 36c0
00000360: 4713 bc3f 96ee c3bf 8843 6b3f a915 a93f
00000370: ff92 bb3e 7a69 f1be 95fb cebf 1fc3 33bb
00000380: c84f 0c3f 0aa6 a53e 020b 753c 554b 56bd
00000390: 69cf fdbf 4db0 31bb 1fc8 a9be b424 1e3e
000003a0: 5b80 40bf 284a 013f 624b babe 9377 143f
000003b0: 0fd0 82c0 2a19 a1bf 8b59 87c0 4b2a 9fc0
000003c0: 9834 99c0 dc9d bb40 942d f23f 489f 6340
000003d0: 6ce7 4d40 8f21 7340 9d14 b1bf 9a46 3fc0
000003e0: d36d 0640 def0 42be ba84 a23d 40f6 5cbd
000003f0: c2ce 943d d028 533c 67b1 253e 5246 ad3d

bias f4 [64]
0.41673857 0.16263334 -0.42518696 -0.13813753 0.17938341 0.11163007 0.118365906 -0.1960366
-0.034448855 0.113309205 0.16659187 0.22431815 -0.15991578 0.1183178 0.009445235 0.052587762
-0.21118326 -0.18761317 0.063891426 -0.20046528 -0.15360348 -0.12325145 -0.19285874 -0.14576708
-0.14363615 -0.14435811 0.050613772 -0.12768455 -0.06115395 -0.30538964 -0.082841925 -0.036124077
-0.21000163 0.18966956 -0.04359511 0.12559898 0.17530216 0.048950847 -0.023872778 0.01149711
-0.06022747 -0.29992712 -0.04677881 0.010476754 -0.3007448 -0.18736048 0.6788136 0.042935416
0.66444284 0.06945215 -0.19433787 -0.08451532 -0.040486068 -0.15640652 -0.1980671 0.10519864
0.24665922 -0.1311296 0.25557432 -0.16094519 0.16091846 -0.049634364 0.13368629 0.17716172
00000000: c25e d53e 5b89 263e 1bb2 d9be ed73 0dbe
00000010: 49b0 373e 4e9e e43d d369 f23d d2bd 48be
00000020: 3e1a 0dbd a80e e83d 0f97 2a3e a8b3 653e
00000030: f6c0 23be 9a50 f23d 30c0 1a3c 4466 573d
00000040: 6d40 58be ab1d 40be 82d9 823d c546 4dbe
00000050: 3b4a 1dbe 426b fcbd c37c 45be f743 15be
00000060: 5b15 13be 9dd2 13be 6350 4f3d bdbf 02be
00000070: 907c 7abd 085c 9cbe 07a9 a9bd d7f6 13bd
00000080: ab0a 57be bd38 423e c990 32bd 059d 003e
00000090: 6982 333e af80 483d d890 c3bc 605e 3c3c
000000a0: 14b1 76bd 0c90 99be 239b 3fbd b1a6 2b3c
000000b0: 39fb 99be 6ddb 3fbe bac6 2d3f 0cdd 2f3d
000000c0: ed18 2a3f ee3c 8e3d 8200 47be 5e16 adbd
000000d0: b8d4 25bd 0829 20be 1ad2 4abe 6272 d73d
000000e0: 3c94 7c3e d646 06be a3da 823e d1ce 24be
000000f0: cfc7 243e 674d 4bbd 0fe5 083e e269 353e

weight f4 [128, 64]
-0.49528006 0.052712634 0.021236593 -0.10021423 0.016147107 0.19988 0.026665814 0.12034401
0.038764592 0.092724286 -0.017022684 0.00031801866 -0.06811945 0.015003726 0.0919787 0.057783768
0.042947274 -0.07176016 0.032449886 -0.045436606 -0.08936058 -0.44969553 -0.1034874 -0.014618498
-0.09311895 -0.08616485 -0.07825825 -0.115953326 -0.019129531 0.09724894 0.026560336 0.1490756
0.051404547 0.10524675 -0.11610272 -0.050618276 0.080446556 0.09084089 0.003546998 -0.031682923
0.014023647 -0.03180371 0.020279296 -0.15866943 -0.021781635 -0.08493124 -0.16653039 0.08334121
-0.63291246 -0.23933373 0.008781144 -0.007847044 -0.03532411 -0.34427267 0.037985895 0.04465942
-0.35528824 -0.0022168458 -0.239647 -0.017036391 0.08210635 -0.05260853 -0.15053396 0.03916701
-0.23384674 0.08387029 0.0062066964 -0.00014580786 -0.033421982 -1.4391173 -0.032875158 -0.12379989
-0.011701667 -0.019068174 -0.026221126 -0.18202646 0.06548396 0.02994275 0.06788999 0.10809463
-1.0481817 0.022647807 0.01509805 -1.7604611 0.1300807 -0.35516205 -0.051032722 0.023746712
0.08486301 -0.022211045 0.06286893 -0.04793711 0.010073146 -1.9747962 -0.040575534 -2.1602368
-0.01721853 0.04373291 -0.118110925 -0.060502544 -0.09843065 -0.037809536 0.024311304 0.019276097
0.0022236109 0.034310985 0.022477103 -0.2766556 0.013738922 0.06877747 -0.13578309 -0.115805596
-0.049735747 -0.022827761 0.10335132 0.09954932 0.117189065 0.13976441 -1.637019 0.054593116
-0.09235497 -0.080037996 -0.125454 0.08207602 0.03339888 -0.0042567747 0.1943357 0.049119856
-0.056037676 0.050478563 0.0030616987 0.004485503 -0.052387852 -1.7999811 0.03673968 0.012562603
0.12743445 0.18371467 0.11512506 0.044190183 -0.05881329 -0.030604467 0.098152936 0.06604615
-0.0873602 -0.056421876 -0.066244945 -1.1892402 0.110335894 -0.37020347 -0.07594681 0.10719667
0.086462274 -0.12169932 0.051035315 -0.004962161 -0.092862785 -1.5942965 0.06067103 -1.18381
0.18705332 -0.10307771 0.0313493 0.05064562 0.011183053 -0.028370462 0.097911105 0.08247763
-0.0887599 -0.008167003 0.059626635 0.01716568 0.020046819 0.066200644 -0.19267036 -0.08095403
-0.04732575 -0.07725075 0.10052103 0.0978062 -0.105885446 0.08237521 -0.17348947 -0.11849165
-0.0156051675 0.11916396 -0.6885935 0.10901697 -0.12414235 -0.03639774 0.009709731 0.053799056
-0.7117151 -0.10863839 -0.7419516 -0.093884826 -0.005522342 0.11792216 0.14198716 -0.06630233
-0.021831848 -0.24501665 -0.025491014 -0.1324199 0.042952195 0.023820296 0.053473964 -0.023633674
0.008911381 0.03093108 0.021371096 -0.013705879 -0.012167275 0.028889304 -0.09069538 -0.0030722423
-0.0337642 0.032892853 -0.012677337 0.113959536 -0.32338244 0.06719576 -0.078955755 0.06816942
0.07355745 -0.018303514 0.013974592 0.12178287 -0.004119605 -0.3688022 -0.10141024 0.08857064
-0.1069826 0.032769307 0.14282076 -0.056733903 0.022724258 0.031351298 0.17089282 0.08354825
-0.2794278 -0.3957107 -0.04493212 -0.17618985 0.03207186 -0.035171874 -1.1704121 -0.08563647
-0.58350265 0.1037578 -0.17743464 -0.107957646 0.033852354 0.0024407692 0.020302871 0.07498123
00000000: 5995 fdbe 34e9 573d 5df8 ad3c 1e3d cdbd
00000010: f046 843c 58ad 4c3e 4472 da3c ec76 f63d
00000020: 9fc7 1e3d 3be6 bd3d 2873 8bbc bebb a639
00000030: 3682 8bbd 30d2 753c 545f bc3d acae 6c3d
00000040: 7be9 2f3d fef6 92bd 2cea 043d bc1b 3abd
00000050: ae02 b7bd 7e3e e6be 34f1 d3bd 6d82 6fbc
00000060: 26b5 bebd 3277 b0bd dd45 a0bd f078 edbd
00000070: 89b5 9cbc 742a c73d 1095 d93c 46a7 183e
00000080: 938d 523d 9c8b d73d 43c7 edbd 1c55 4fbd
00000090: 2ac1 a43d ca0a ba3d c074 683b f4c5 01bd
000000a0: 70c3 653c 9b44 02bd c420 a63c 3d7a 22be
000000b0: 666f b2bc 6ef0 adbd f186 2abe ccae aa3d
000000c0: 8d06 22bf e713 75be cade 0f3c e390 00bc
000000d0: 04b0 10bd 8244 b0be 1997 1b3d ccec 363d
000000e0: 57e8 b5be 8048 11bb 0666 75be e78f 8bbc
000000f0: 6027 a83d 0b7c 57bd 9325 1abe 966d 203d
00000100: 8575 6fbe 30c4 ab3d 8b61 cb3b 00e4 18b9
00000110: 7de5 08bd ff34 b8bf 1aa8 06bd cc8a fdbd
00000120: 59b8 3fbc dc34 9cbc b0cd d6bc 2565 3abe
00000130: 741c 863d 804a f53c e809 8b3d b860 dd3d
00000140: d12a 86bf e587 b93c d05d 773c ca56 e1bf
00000150: e033 053e cdd7 b5be b007 51bd 7788 c23c
00000160: a8cc ad3d f0f3 b5bc 6dc1 803d b459 44bd
00000170: d609 253c 1fc6 fcbf 8832 26bd 5241 0ac0
00000180: e00d 8dbc 4821 333d 24e4 f1bd 84d1 77bd
00000190: 0296 c9bd 2cde 1abd 8028 c73c e8e8 9d3c
000001a0: 00ba 113b ad89 0c3d e721 b83c cea5 8dbe
000001b0: 3719 613c 34db 8c3d b90a 0bbe 7c2b edbd
000001c0: b6b7 4bbd 4901 bbbc dba9 d33d 84e0 cb3d
000001d0: d200 f03d 671e 0f3e d789 d1bf 089d 5f3d
000001e0: 9a24 bdbd f6ea a3bd 0377 00be 7917 a83d
000001f0: 44cd 083d 6a7c 8bbb f0ff 463e e731 493d
00000200: c387 65bd 9cc2 4e3d c8a6 483b 20fb 923b
00000210: a594 56bd c865 e6bf 597c 163d 60d3 4d3c
00000220: 2d7e 023e b31f 3c3e b0c6 eb3d c400 353d
00000230: 34e6 70bd 38b6 fabc 6804 c93d 3443 873d
00000240: e8e9 b2bd a01a 67bd 6eab 87bd 0639 98bf
00000250: c9f7 e13d 4f8b bdbe 008a 9bbd ed89 db3d
00000260: 2213 b13d 7e3d f9bd 680a 513d a099 a2bb
00000270: d82e bebd e811 ccbf 3082 783d 1687 97bf
00000280: e88a 3f3e 681a d3bd 2068 003d c871 4f3d
00000290: 2039 373c 2c69 e8bc 9e85 c83d 08ea a83d
000002a0: c0c7 b5bd e5ce 05bc 0f3b 743d 0a9f 8c3c
000002b0: 3a39 a43c 3494 873d 614b 45be 3acb a5bd
000002c0: a5d8 41bd a435 9ebd f8dd cd3d 9e4e c83d
000002d0: 78da d8bd 56b4 a83d 39a7 31be c0ab f2bd
000002e0: d1ac 7fbc 3c0c f43d aa47 30bf 4a44 df3d
000002f0: 583e febd cc15 15bd 9015 1f3c 665c 5c3d
00000300: f632 36bf ce7d debd 8af0 3dbf b046 c0bd
00000310: c3f4 b4bb 2c81 f13d 1565 113e 84c9 87bd
00000320: b4d8 b2bc a5e5 7abe 88d2 d0bc 1599 07be
00000330: a4ee 2f3d c822 c33c 8407 5b3d 689b c1bc
00000340: 0a01 123c 2d63 fd3c 7012 af3c a08e 60bc
00000350: 4059 47bc 43a9 ec3c 80be b9bd ac57 49bb
00000360: 544c 0abd a8ba 063d 9bb4 4fbc 9e63 e93d
00000370: 6292 a5be ee9d 893d 8eb3 a1bd 699c 8b3d
00000380: 4aa5 963d 40f1 95bc b0f5 643c 4c69 f93d
00000390: c0fd 86bb a4d3 bcbe 2cb0 cfbd 8664 b53d
000003a0: b219 dbbd 1c39 063d 9b3f 123e cf61 68bd
000003b0: 3928 ba3c 386a 003d 87fe 2e3e 581b ab3d
000003c0: 2911 8fbe 989a cabe be0a 38bd 1d6b 34be
000003d0: c85d 033d 6210 10bd 10d0 95bf 2c62 afbd
000003e0: 6e60 15bf f87e d43d 6db1 35be e618 ddbd
000003f0: c4a8 0a3d 50f5 1f3b 3552 a63c c28f 993d

bias f4 [128]
1.4414042 1.2056404 0.21074134 0.87425876 -0.36595663 -0.39384562 1.4080757 -0.00016531168
1.3250766 -0.50221753 -0.19169359 0.2531488 0.12250864 0.51180065 -0.8177422 -1.1477901
0.4650777 -0.45184928 0.026813801 1.230117 0.2127662 -0.23263106 -0.45218295 0.50383776
0.09926086 0.11865569 -0.37186864 0.65561515 -0.2526134 -1.1211435 -1.305759 0.5318084
-0.5175316 -0.05747527 0.43081105 -0.2630424 0.3757919 1.4039202 0.3601305 0.3964797
-1.0223641 0.60208523 -0.1522108 1.6433216 -0.035573736 -0.10148473 1.1291364 0.24324204
-0.36453378 0.9570826 0.6849046 0.48302454 0.9643111 1.7743981 0.8372455 0.93346703
0.18586695 0.6939928 0.44446817 -0.2428275 -0.14516602 -0.7825949 1.2317803 0.22721991
0.84826046 0.76797754 0.8814372 -0.5992225 0.690647 -2.6963732 -0.14733186 0.2928574
0.8033113 1.3223537 0.8418213 0.11361699 -0.67032236 0.3731607 -2.1335032 0.6561135
0.25610906 0.5925094 0.03053241 0.63443047 0.48171976 0.7389453 0.48120353 -0.15866627
0.8110811 1.3170451 0.49921653 0.29031667 0.27876496 1.9293958 -1.3697765 0.7188267
0.44450366 -0.95479846 0.5235933 0.3535986 1.86713 0.94577616 -1.8173202 0.110762805
-0.25553972 0.12508127 0.17334092 1.2509964 0.3094387 -0.029381825 0.18796586 -0.0736284
-0.22051886 -0.036427137 1.4652189 0.38131908 0.2761238 0.7635668 1.4678379 1.556176
-0.63988125 0.8788917 2.1843774 0.21914758 -2.0672112 -0.19639671 0.028296728 1.0697733
00000000: ef7f b83f 6d52 9a3f 94cc 573e 6ccf 5f3f
00000010: ab5e bbbe 22a6 c9be d33b b43f 8457 2db9
00000020: 1c9c a93f 5491 00bf 534b 44be b89c 813e
00000030: cfe5 fa3d 5e05 033f 8e57 51bf c9ea 92bf
00000040: aa1e ee3e ca58 e7be 9ea8 db3c 7974 9d3f
00000050: 62df 593e d636 6ebe 8684 e7be 83fb 003f
00000060: 4749 cb3d c101 f33d 9165 bebe 65d6 273f
00000070: 8b56 81be a181 8fbf 1c23 a7bf 9824 083f
00000080: f37c 04bf 306b 6bbd 4493 dc3e 7ead 86be
00000090: cc67 c03e a8b3 b33f 0663 b83e 63ff ca3e
000000a0: d4dc 82bf 4222 1a3f 26dd 1bbe 5d58 d23f
000000b0: c4b5 11bd 3ad7 cfbd 8b87 903f 7114 793e
000000c0: 2ca4 babe 5e03 753f e855 2f3f fe4e f73e
000000d0: 18dd 763f 7a1f e33f b955 563f b2f7 6e3f
000000e0: e853 3e3e 83a9 313f 5591 e33e c6a7 78be
000000f0: 67a6 14be 2458 48bf faaa 9d3f 56ac 683e
00000100: 9927 593f 2d9a 443f dea5 613f a566 19bf
00000110: 3ece 303f 6191 2cc0 2ade 16be 68f1 953e
00000120: cfa5 4d3f e342 a93f 9a81 573f 06b0 e83d
00000130: 3f9a 2bbf eb0e bf3e 518b 08c0 0ef7 273f
00000140: ba20 833e b2ae 173f 1b1f fa3c 096a 223f
00000150: f9a3 f63e 852b 3d3f 4f60 f63e 6979 22be
00000160: 03a3 4f3f ef94 a83f 4f99 ff3e 63a4 943e
00000170: 48ba 8e3e 71f6 f63f d654 afbf 0705 383f
00000180: fc95 e33e ac6d 74bf 360a 063f e00a b53e
00000190: 1efe ee3f 631e 723f f39d e8bf 9cd7 e23d
000001a0: 1ad6 82be 4e15 003e 4880 313e a620 a03f
000001b0: c06e 9e3e 27b2 f0bc 1f7a 403e 7dca 96bd
000001c0: b2cf 61be 9f34 15bd 4b8c bb3f 413c c33e
000001d0: 1960 8d3e 1d79 433f 1de2 bb3f c630 c73f
000001e0: 42cf 23bf 0cff 603f d7cc 0b40 3968 603e
000001f0: 304d 04c0 381c 49be 8ace e73c 55ee 883f

weight f4 [64, 128]
-0.025070991 0.007239936 -0.085073404 0.04670133 -0.08045601 -0.026702685 -0.08882281 -0.09737699
-0.101086594 -0.10143024 -0.06781464 -0.10513138 0.057027962 0.011418204 -0.108064726 -0.026919855
-0.16456549 -0.06404109 -0.0798488 -0.12277964 -0.022724833 0.06841778 -0.046583757 -0.015628701
-0.06568858 -0.03372203 -0.07239723 -0.013078994 -0.08626501 -0.05984373 -0.07108585 -0.03321078
-0.10397762 -0.020754706 -0.019903628 -0.045489907 -0.007552443 -0.039405216 -0.098450854 0.024966946
-0.058269706 -0.08148157 -0.08105039 -0.052226134 0.01802145 -0.10566773 -0.04261299 -0.12576573
-0.052828122 -0.079223596 0.0029436622 -0.047456075 -0.042059798 -0.061942518 0.042087037 -0.012714243
-0.0862475 0.045608245 -0.0005673276 -0.078924365 -0.09718787 -0.033588722 0.008081685 -0.076840445
-0.04014506 -0.023352416 0.023981575 -0.10957922 0.024439935 -0.023310523 -0.01036567 0.024622051
0.0032321485 -0.10607492 0.021730294 -0.10610142 -0.03282543 -0.022190627 0.03127625 -0.016666181
-0.041685674 -0.08090214 -0.06679703 -0.024195446 -0.0799147 -0.046478525 0.01890232 0.059935436
-0.11189802 -0.054623056 -0.09391478 -0.06019793 -0.10725326 0.022396233 -0.13609532 -0.03121258
0.043429922 -0.03870845 -0.031619396 0.0208595 -0.05699399 0.02230623 0.0054926076 -0.010692824
-0.09395927 -0.045140076 0.016547939 0.03769669 0.019025305 0.02173317 -0.0025038396 0.030889105
0.06399982 -0.09881329 0.04084463 -0.10069749 0.03245982 -0.07682353 -0.06614458 -0.016735181
-0.0061258823 -0.07421585 -0.040758144 0.010407317 0.022080926 -0.049389113 -0.20373102 -0.051835753
0.066109315 -0.11157682 0.007636731 0.20722367 0.2423061 -0.006720894 0.13578896 -0.008449003
-0.15338618 -0.614739 0.00033416573 -0.52509046 -0.10492027 -0.13320649 -1.6374007 -0.062062263
0.16087802 0.17939702 -0.028049016 -0.12182003 0.052561574 -0.33389693 -0.040224645 -0.8357825
-0.04286388 0.052557793 -0.113638155 -0.10327954 0.023452597 0.103104204 -0.0884072 0.038441498
0.1294052 0.04965145 -0.15714368 -0.08633697 -0.08418212 -0.06264727 0.07840062 -0.34066704
-0.46013412 0.15054424 0.06953167 -0.34644395 0.11321008 -0.13175182 -0.2138745 0.10180515
-0.008812279 0.14394149 -0.06771879 0.04068426 0.118574634 -0.6321543 0.35020536 0.039077904
0.12565728 -0.08798351 0.102548465 0.114681765 -0.12911761 -0.6447122 0.3917495 0.30861652
0.33635408 0.19098581 0.4081264 -0.21271482 0.016847126 -0.33941078 -0.5653 0.1873742
0.6217963 0.016709648 0.041325018 0.22332351 -0.2725071 0.0098043 0.5304698 0.050408415
-0.035554282 -0.084769204 0.21500227 0.12165703 0.018961692 -0.1757743 0.13430153 0.36722052
-0.0555495 -0.4765567 0.06395257 0.08606921 0.029346453 -0.07286259 -0.02658238 -0.03073816
0.074489504 -1.2235268 0.003300706 -0.09977642 0.06700505 0.04996463 -1.9213145 -0.00979347
-1.4795895 0.21413314 -0.27751887 -0.12664303 0.16264735 0.010031744 0.1115925 0.031091664
-0.19975205 -0.027230311 -0.06952943 0.18785964 0.11729655 0.020314591 -0.06537318 0.26343942
0.055148106 -0.008387635 -0.08244714 0.045800544 0.36305898 -0.013426246 -0.3659631 0.08842881
00000000: ae61 cdbc fc3c ed3b f73a aebd e549 3f3d
00000010: 1fc6 a4bd 97bf dabc bce8 b5bd 966d c7bd
00000020: 7d06 cfbd a8ba cfbd 67e2 8abd 1f4f d7bd
00000030: 2796 693d 6b13 3b3c 0a51 ddbd 0787 dcbc
00000040: db83 28be fa27 83bd c587 a3bd e473 fbbd
00000050: 6e29 babc 9f1e 8c3d 9cce 3ebd c307 80bc
00000060: bc87 86bd 1d20 0abd 0045 94bd 4749 56bc
00000070: b6ab b0bd b31e 75bd 7595 91bd 0708 08bd
00000080: 38f2 d4bd c605 aabc ef0c a3bc a053 3abd
00000090: 7c7a f7bb 5d67 21bd 9aa0 c9bd 7b87 cc3c
000000a0: 37ac 6ebd cfdf a6bd bffd a5bd 12eb 55bd
000000b0: b8a1 933c 5368 d8bd f58a 2ebd bbc8 00be
000000c0: 4d62 58bd fb3f a2bd 75ea 403b 4d61 42bd
000000d0: e546 2cbd 70b7 7dbd 7563 2c3d 664f 50bc
000000e0: 87a2 b0bd b6cf 3a3d b6b8 14ba 19a3 a1bd
000000f0: 6f0a c7bd 5494 09bd 0b69 043c 865e 9dbd
00000100: 256f 24bd 914d bfbc 0275 c43c 126b e0bd
00000110: 4236 c83c b6f5 bebc c5d4 29bc 2fb4 c93c
00000120: 74d2 533b cf3d d9bd bb03 b23c b44b d9bd
00000130: f573 06bd 1ec9 b5bc 861b 003d 8487 88bc
00000140: 99be 2abd 05b0 a5bd e2cc 88bd 8735 c6bc
00000150: 51aa a3bd 4460 3ebd 0ad9 9a3c dc7e 753d
00000160: ca2a e5bd 6dbc 5fbd 6456 c0bd 1b92 76bd
00000170: 99a7 dbbd 4e78 b73c 925c 0bbe 86b1 ffbc
00000180: 93e3 313d c08c 1ebd 5783 01bd 8be1 aa3c
00000190: 8872 69bd 8ebb b63c 55fb b33b f430 2fbc
000001a0: b86d c0bd cde4 38bd 8b8f 873c d867 1a3d
000001b0: f5da 9b3c c309 b23c 7517 24bb 260b fd3c
000001c0: 5612 833d 9f5e cabd b34c 273d 7c3a cebd
000001d0: 97f4 043d a855 9dbd cf76 87bd 3818 89bc
000001e0: a0bb c8bb 7bfe 97bd 03f2 26bd 7483 2a3c
000001f0: 0fe3 b43c 3d4c 4abd dd9e 50be ba51 54bd
00000200: 5264 873d 6382 e4bd 8b3d fa3b 7132 543e
00000210: 171f 783e f23a dcbb 430c 0b3e b06d 0abc
00000220: 4411 1dbe 895f 1dbf f732 af39 546c 06bf
00000230: 70e0 d6bd 4867 08be 5996 d1bf 0035 7ebd
00000240: 35bd 243e dab3 373e 0dc7 e5bc c87c f9bd
00000250: ce4a 573d 8af4 aabe 99c2 24bd d8f5 55bf
00000260: 0992 2fbd d746 573d 1fbb e8bd 3984 d3bd
00000270: a91f c03c 4c28 d33d d60e b5bd d574 1d3d
00000280: cc82 043e 525f 4b3d 46ea 20be 70d1 b0bd
00000290: ad67 acbd 364d 80bd 8190 a03d e96b aebe
000002a0: b396 ebbe 4528 1a3e 9f66 8e3d 1a61 b1be
000002b0: b0da e73d f3e9 06be eb01 5bbe 387f d03d
000002c0: 6161 10bc 6665 133e 26b0 8abd 8aa4 263d
000002d0: 42d7 f23d ddd4 21bf 1e4e b33e 2710 203d
000002e0: 4dac 003e b330 b4bd ee04 d23d 46de ea3d
000002f0: 6837 04be dc0b 25bf 6493 c83e fc02 9e3e
00000300: 9a36 ac3e c991 433e f2f5 d03e ead1 59be
00000310: fc02 8a3c 40c7 adbe 80b7 10bf 06df 3f3e
00000320: 0b2e 1f3f ace2 883c 6c44 293d ebae 643e
00000330: 0d86 8bbe 37a2 203c decc 073f 0e79 4e3d
00000340: 5ea1 11bd 7a9b adbd 8e29 5c3e 5227 f93d
00000350: 8d55 9b3c 2efe 33be 5786 093e 5404 bc3e
00000360: df87 63bd 3dff f3be 91f9 823d 0e45 b03d
00000370: f967 f03c fb38 95bd 4bc3 d9bc 98ce fbbc
00000380: f48d 983d 879c 9cbf a850 583b 9457 ccbd
00000390: f239 893d b6a7 4c3d a2ed f5bf ca74 20bc
000003a0: 3063 bdbf b845 5b3e f416 8ebe b6ae 01be
000003b0: 078d 263e 2f5c 243c 9c8a e43d f2b3 fe3c
000003c0: cd8b 4cbe 1a12 dfbc 7265 8ebd 475e 403e
000003d0: 2c39 f03d c96a a63c 60e2 85bd 88e1 863e
000003e0: fbe2 613d 4b6c 09bc 0cda a8bd 5a99 3b3d
000003f0: dee2 b93e c2f9 5bbc 845f bbbe 2a1a b53d

bias f4 [64]
-0.15266432 2.4802358 2.0779488 0.69889975 3.4873495 0.5207241 3.357499 0.051782694
2.6894665 3.8610516 2.6389737 3.08179 0.9022175 2.9133532 3.0206776 3.532055
3.12236 1.7284708 2.676292 1.8562567 3.0710773 2.3660595 1.8797697 3.4040592
1.3642944 2.1824837 -0.15726192 3.6743875 3.9880812 3.7619808 4.2941628 3.0662389
3.4464955 -0.23326117 3.0682008 3.5043209 2.422031 1.8556051 3.0860548 4.3540635
2.6749065 4.179203 0.35373974 3.5721152 4.02288 -0.07930636 2.715938 3.1719837
3.4109592 3.014405 2.9035778 2.368477 2.9924507 2.6046271 3.1893425 2.7980976
2.1326568 1.3741894 2.9748168 -0.05560812 2.0088224 3.713211 2.5488825 3.2865536
00000000: 0954 1cbe 2fbc 1e40 1dfd 0440 18eb 323f
00000010: bc30 5f40 2d4e 053f 43e1 5640 171a 543d
00000020: 3820 2c40 781b 7740 f2e4 2840 0c3c 4540
00000030: baf7 663f 6174 3a40 c852 4140 300d 6240
00000040: bfd4 4740 883e dd3f 5e48 2b40 d299 ed3f
00000050: 888c 4440 856d 1740 4b9c f03f 1bdc 5940
00000060: 33a1 ae3f d0ad 0b40 4509 21be 2a29 6b40
00000070: b93c 7f40 4bc4 7040 c869 8940 423d 4440
00000080: 6293 5c40 04dc 6ebe 675d 4440 cb46 6040
00000090: 8e02 1b40 7884 ed3f ec81 4540 7d54 8b40
000000a0: ab31 2b40 08bc 8540 601d b53e 899d 6440
000000b0: 6fbb 8040 5f6b a2bd eed1 2d40 c801 4b40
000000c0: 284d 5a40 03ec 4040 38d4 3940 2195 1740
000000d0: 5084 3f40 36b2 2640 301e 4c40 0814 3340
000000e0: 737d 0840 70e5 af3f 6663 3e40 57c5 63bd
000000f0: 8c90 0040 40a5 6d40 e420 2340 e556 5240

weight f4 [7, 64]
0.10789048 0.03454628 -0.0033415495 -0.010466985 -0.14804225 0.049394034 -0.08101106 -0.041244082
-0.2061492 -0.10499033 -0.0048711584 0.026729876 0.015218331 -0.0479399 -0.08895599 -0.10865352
-0.13247058 -0.115824826 0.006858962 -0.11090681 -0.11243405 -0.07564617 0.032654125 -0.04925385
-0.11098568 0.03649246 -0.021912701 -0.1534244 -0.09021975 -0.10045341 -0.021634633 -0.18273385
-0.22683272 -0.09282683 0.057430822 -0.021675278 -0.059803672 -0.108329184 -0.017657585 -0.108673066
0.019465694 -0.028388457 -0.033663165 -0.09639721 -0.16102473 -0.0335286 0.062536016 -0.07360332
-0.15920259 -0.05489224 -0.11936996 -0.08645987 -0.090559535 -0.12888806 -0.14319552 -0.027567035
-0.14940904 0.0169379 -0.13768123 0.07757597 0.010759243 -0.11846738 -0.05433324 -0.13417597
0.1012698 -0.007934641 -0.13563965 0.017878624 -0.1525045 0.03884461 -0.037237946 -0.14337337
0.015728315 -0.1169108 -0.11660055 0.064345606 -0.037094954 -0.1097302 -0.024835344 -0.15705605
-0.09627589 0.011673615 -0.1156357 0.013534876 -0.101021536 -0.0069530043 -0.010476941 -0.00039721545
0.058939483 0.06850008 0.09171176 -0.13503942 -0.09012375 -0.102768786 -0.074529134 -0.101033814
-0.051534317 0.03435844 0.015196608 -0.1474855 -0.11708049 -0.059068006 -0.0071540303 0.016679179
-0.0369379 -0.19482522 -0.09031762 -0.017327446 -0.07677804 0.027723616 -0.09878871 0.010188755
-0.13509747 -0.07327684 -0.05173693 -0.14613417 -0.03485192 -0.050797172 -0.01522217 -0.132908
-0.10860766 -0.07118207 0.080569245 0.051965646 0.047982946 0.023420379 -0.07148707 -0.06653212
-0.09459592 0.06110305 -0.033252027 0.037433065 -0.02441235 0.021718087 0.14416814 -0.10039366
0.21940503 0.37763885 0.070904866 0.028454086 0.045803737 0.042144045 0.15749043 0.0092732655
0.043721966 0.06335641 0.2222593 -0.010096304 0.10720055 -0.03838707 0.05848241 0.024049921
0.117707774 0.060226392 -0.005744202 0.039335035 0.041216843 0.026827198 0.1495162 0.03137158
0.03376044 -0.07219103 0.20658685 0.033601474 -0.0446657 0.10315605 0.0036441681 0.21012454
-0.00019371188 0.26231816 -0.112571955 0.0058089313 0.09855743 -0.08252547 0.077989474 0.17080595
0.13933468 0.07490409 0.06885804 0.3291356 0.028661901 0.19751278 0.15519544 0.11897171
0.020837525 0.0032727406 0.0209951 0.0009475358 0.055245508 0.02529164 0.37662283 0.17075759
-0.018222466 0.021260109 0.4559955 0.34037733 0.2871349 0.23779474 -0.010756426 0.54835236
0.008921506 0.09907184 -0.007336519 0.01349931 -0.0034360453 -0.010881139 -0.013925397 0.2915357
-0.0019875977 -0.017424323 0.0021967117 0.31393442 0.002377699 0.32871175 -0.026858835 0.09665157
0.23070918 -0.008557075 -0.002845959 0.34576106 0.31246644 0.28965822 0.32655895 0.3183427
0.26149443 -0.055027142 0.19257613 0.27907768 -0.008656166 -0.02269764 0.27122736 0.25150353
0.3028775 0.3356382 -0.108678296 0.29561585 0.2999684 -0.012455259 0.012606455 -0.02366613
-0.003919853 0.0058782212 0.0062128827 -0.03351824 0.2629652 0.007639384 0.019280517 -0.030558102
-0.0017534342 0.3271686 0.020541178 0.12780866 0.010068652 0.27495712 0.038341116 -0.008816938
00000000: aff5 dc3d 6680 0d3d e6fd 5abb b87d 2bbc
00000010: 6398 17be 6651 4a3d 20e9 a5bd 8eef 28bd
00000020: c718 53be 2c05 d7bd 3d9e 9fbb 9df8 da3c
00000030: 4e56 793c a15c 44bd 8f2e b6bd bd85 debd
00000040: 5ea6 07be 9135 edbd 25c1 e03b 1c23 e3bd
00000050: d343 e6bd 61ec 9abd 55c0 053d 68be 49bd
00000060: 764c e3bd 1e79 153d 4482 b3bc 491b 1dbe
00000070: 22c5 b8bd 84ba cdbd 1d3b b1bc 951e 3bbe
00000080: d646 68be fe1b bebd 953c 6b3d 5a90 b1bc
00000090: b2f4 74bd b1db ddbd a4a6 90bc fc8f debd
000000a0: 8576 9f3c e98e e8bc 63e2 09bd e76b c5bd
000000b0: abe3 24be 4955 09bd e212 803d 56bd 96bd
000000c0: 0106 23be afd6 60bd 3d78 f4bd df11 b1bd
000000d0: 4777 b9bd 3bfb 03be d9a1 12be 43d4 e1bc
000000e0: affe 18be 5ac1 8a3c 4ffc 0cbe 26e0 9e3d
000000f0: 8947 303c 079f f2bd 888c 5ebd 6d65 09be
00000100: 8a66 cf3d 4c00 02bc 1fe5 0abe 3176 923c
00000110: 242a 1cbe 871b 1f3d d186 18bd 78d0 12be
00000120: abd8 803c ee6e efbd 45cc eebd a1c7 833d
00000130: e1f0 17bd 3aba e0bd 7e73 cbbc 4dd3 20be
00000140: 4b2c c5bd b142 3f3c 69d2 ecbd 62c1 5d3c
00000150: 61e4 cebd 07d6 e3bb 7aa7 2bbc 5b41 d0b9
00000160: 876a 713d c549 8c3d 60d3 bb3d c647 0abe
00000170: cd92 b8bd 7178 d2bd bba2 98bd d1ea cebd
00000180: a615 53bd 70bb 0c3d 32fb 783c 7006 17be
00000190: e5c7 efbd 4bf1 71bd 5b6c eabb c6a2 883c
000001a0: 324c 17bd 4380 47be 72f8 b8bd 4af2 8dbc
000001b0: ce3d 9dbd a31c e33c bc51 cabd bcee 263c
000001c0: fe56 0abe 2b12 96bd 1aea 53bd 32a4 15be
000001d0: e3c0 0ebd b210 50bd 6966 79bc 0919 08be
000001e0: b16d debd e8c7 91bd 7d01 a53d eed9 543d
000001f0: c489 443d 18dc bf3c d067 92bd fe41 88bd
00000200: 81bb c1bd 3147 7a3d 4733 08bd 6a53 193d
00000210: 69fc c7bc 21ea b13c d0a0 133e 319b cdbd
00000220: b6ab 603e e159 c13e 9236 913d 8b18 e93c
00000230: b39c 3b3d 3c9f 2c3d 2c45 213e e5ee 173c
00000240: ce15 333d 01c1 813d f197 633e f86a 25bc
00000250: f68b db3d c33b 1dbd 408b 6f3d 5704 c53c
00000260: c610 f13d f3af 763d dc39 bcbb c61d 213d
00000270: fed2 283d b6c4 db3c c61a 193e 7c7f 003d
00000280: 6348 0a3d e4d8 93bd 818b 533e b3a1 093d
00000290: 62f3 36bd 7b43 d33d ffd2 6e3b e32a 573e
000002a0: 231f 4bb9 914e 863e 208c e6bd d958 be3b
000002b0: 7ad8 c93d 1d03 a9bd f2b8 9f3d c1e7 2e3e
000002c0: c0ad 0e3e 5167 993d 7205 8d3d 7684 a83e
000002d0: 5dcc ea3c ca40 4a3e 8eeb 1e3e 71a7 f33d
000002e0: 75b3 aa3c 7a7b 563b eafd ab3c 0d64 783a
000002f0: 1d49 623d 6a30 cf3c b5d4 c03e 14db 2e3e
00000300: 4847 95bc ae29 ae3c 3e78 e93e f045 ae3e
00000310: 5803 933e 7780 733e b83b 30bc d260 0c3f
00000320: 822b 123c 2de6 ca3d 2f67 f0bb 362c 5d3c
00000330: 462f 61bb ce46 32bc 5927 64bc 2b44 953e
00000340: 5b42 02bb 74bd 8ebc b5f6 0f3b 03bc a03e
00000350: 2bd3 1b3b e84c a83e 0f07 dcbc 42f1 c53d
00000360: 073f 6c3e f932 0cbc 4583 3abb 9807 b13e
00000370: 9afb 9f3e 154e 943e bc32 a73e d0fd a23e
00000380: 99e2 853e 2464 61bd ad32 453e 45e3 8e3e
00000390: 97d2 0dbc 67f0 b9bc 50de 8a3e 12c5 803e
000003a0: c212 9b3e c5d8 ab3e ba92 debd f65a 973e
000003b0: 7595 993e 2511 4cbc 4e8b 4e3c 79df c1bc
000003c0: 1c72 80bb 189e c03b 7095 cb3b 6c4a 09bd
000003d0: 60a3 863e cc53 fa3b 2df2 9d3c fc54 fabc
000003e0: 7dd3 e5ba a582 a73e f945 a83c 46e0 023e
000003f0: fdf6 243c 2ec7 8c3e 930b 1d3d eb74 10bc

bias f4 [7]
-0.09087507 -0.0802369 7.8380766 7.400686 7.071677 6.2805915 1.8407786
00000000: b51c babd 3e53 a4bd 86d1 fa40 6bd2 ec40
00000010: 2e4b e240 9bfa c840 a29e eb3f
